…
01:11:18] ===
2025-07-31 01:11:21,099 [INFO] âœ… Loaded 3392 samples | Feature shape: (4096,)
2025-07-31 01:11:21,153 [INFO] Training samples: 2713, Validation samples: 679
2025-07-31 01:11:21,165 [INFO] Class Weights: {0: 1.0895582329317268, 1: 0.9240463215258855}
2025-07-31 01:11:21,355 [INFO] ðŸ“¦ Model Architecture:
2025-07-31 01:11:21,355 [INFO] Model: "sequential"
_________________________________________________________________
 Layer (type)                Output Shape              Param #   
=================================================================
 dense (Dense)               (None, 256)               1048832   
                                                                 
 dropout (Dropout)           (None, 256)               0         
                                                                 
 dense_1 (Dense)             (None, 128)               32896     
                                                                 
 dropout_1 (Dropout)         (None, 128)               0         
                                                                 
 dense_2 (Dense)             (None, 64)                8256      
                                                                 
 dense_3 (Dense)             (None, 32)                2080      
                                                                 
 dense_4 (Dense)             (None, 1)                 33        
                                                                 
=================================================================
Total params: 1,092,097
Trainable params: 1,092,097
Non-trainable params: 0
_________________________________________________________________

2025-07-31 01:11:21,356 [INFO] ðŸ§  Optimizer: Adam
2025-07-31 01:11:21,359 [INFO] âš™ï¸  Learning Rate: 1.0e-04
2025-07-31 01:11:21,359 [INFO] ðŸ“‰ Loss Function: Binary Crossentropy
…
