…
:16] ===
2025-07-29 16:22:33,769 [INFO] âœ… Loaded 22941 samples | Feature shape: (4096,)
2025-07-29 16:22:34,173 [INFO] Training samples: 18352, Validation samples: 4589
2025-07-29 16:22:34,186 [INFO] Class Weights: {0: 1.0502460798901225, 1: 0.9543421736869475}
2025-07-29 16:22:34,263 [INFO] ðŸ“¦ Model Architecture:
2025-07-29 16:22:34,263 [INFO] Model: "sequential_1"
_________________________________________________________________
 Layer (type)                Output Shape              Param #   
=================================================================
 dense_5 (Dense)             (None, 256)               1048832   
                                                                 
 dropout_2 (Dropout)         (None, 256)               0         
                                                                 
 dense_6 (Dense)             (None, 128)               32896     
                                                                 
 dropout_3 (Dropout)         (None, 128)               0         
                                                                 
 dense_7 (Dense)             (None, 64)                8256      
                                                                 
 dense_8 (Dense)             (None, 32)                2080      
                                                                 
 dense_9 (Dense)             (None, 1)                 33        
                                                                 
=================================================================
Total params: 1,092,097
Trainable params: 1,092,097
Non-trainable params: 0
_________________________________________________________________

2025-07-29 16:22:34,264 [INFO] ðŸ§  Optimizer: Adam
2025-07-29 16:22:34,265 [INFO] âš™ï¸  Learning Rate: 1.0e-04
2025-07-29 16:22:34,266 [INFO] ðŸ“‰ Loss Function: Binary Crossentropy
…
