…
 and running @ [2025-07-29 16:08:47] ===
2025-07-29 16:08:58,258 [INFO] âœ… Loaded 17480 samples | Feature shape: (4096,)
2025-07-29 16:08:58,427 [INFO] Training samples: 13984, Validation samples: 3496
2025-07-29 16:08:58,438 [INFO] Class Weights: {0: 1.0, 1: 1.0}
2025-07-29 16:08:58,637 [INFO] ðŸ“¦ Model Architecture:
2025-07-29 16:08:58,643 [INFO] Model: "sequential"
_________________________________________________________________
 Layer (type)                Output Shape              Param #   
=================================================================
 dense (Dense)               (None, 256)               1048832   
                                                                 
 dropout (Dropout)           (None, 256)               0         
                                                                 
 dense_1 (Dense)             (None, 128)               32896     
                                                                 
 dropout_1 (Dropout)         (None, 128)               0         
                                                                 
 dense_2 (Dense)             (None, 64)                8256      
                                                                 
 dense_3 (Dense)             (None, 32)                2080      
                                                                 
 dense_4 (Dense)             (None, 1)                 33        
                                                                 
=================================================================
Total params: 1,092,097
Trainable params: 1,092,097
Non-trainable params: 0
_________________________________________________________________

2025-07-29 16:08:58,644 [INFO] ðŸ§  Optimizer: Adam
2025-07-29 16:08:58,646 [INFO] âš™ï¸  Learning Rate: 1.0e-04
2025-07-29 16:08:58,647 [INFO] ðŸ“‰ Loss Function: Binary Crossentropy
…
